…
2026-06-01 00:30:54 | INFO | fairseq.data.data_utils | loaded 18090 examples from: /workspace/lra/aan/src-bin/valid
2026-06-01 00:30:54 | INFO | fairseq.data.data_utils | loaded 18090 examples from: /workspace/lra/aan/src1-bin/valid
2026-06-01 00:30:54 | INFO | fairseq.data.data_utils | loaded 18090 examples from: /workspace/lra/aan/label-bin/valid
2026-06-01 00:30:54 | INFO | fairseq.tasks.long_range_arena | Loaded valid with #samples: 18090
2026-06-01 00:30:54 | INFO | fairseq_cli.train | LRAModel(
  (encoder): LRAEncoder(
    (encoder): BiRAMLRAEncoder(
      (dropout_module): FairseqDropout(p=0.2)
      (embed_tokens): Embedding(105, 128, padding_idx=1)
      (embed_positions): SinusoidalPositionalEmbedding()
      (biraml): BiRAM_Layer(
        (biram_w_l): Linear(in_features=128, out_features=128, bias=True)
        (biram_w_d): Dropout(p=0.2, inplace=False)
        (fuse_w_l): Linear(in_features=128, out_features=128, bias=True)
        (fuse_w_d): Dropout(p=0.2, inplace=False)
        (biram_norm): LayerNorm((128,), eps=1e-05, elementwise_affine=True)
        (main_conv): Sequential(
          (0): Conv1d(128, 128, kernel_size=(5,), stride=(1,), padding=same)
          (1): Dropout(p=0.2, inplace=False)
          (2): SiLU()
        )
        (main_conv_norm): LayerNorm((128,), eps=1e-05, elementwise_affine=True)
        (over_conv): Sequential(
          (0): Conv1d(128, 128, kernel_size=(3,), stride=(1,), padding=same)
          (1): Dropout(p=0.2, inplace=False)
          (2): SiLU()
        )
        (over_conv_norm): LayerNorm((128,), eps=1e-05, elementwise_affine=True)
        (linear_fusion): Linear(in_features=384, out_features=128, bias=True)
        (linear_fusion_d): Dropout(p=0.2, inplace=False)
        (norm): LayerNorm((128,), eps=1e-05, elementwise_affine=True)
      )
      (layers): ModuleList(
        (0-5): 6 x BiRAMSentenceEncoderLayer(
          (dropout_module): FairseqDropout(p=0.2)
          (activation_dropout_module): FairseqDropout(p=0.2)
          (self_attn): CAMA_v2(
            (output_linear): Linear(in_features=128, out_features=128, bias=True)
            (att_dropout): Dropout(p=0.2, inplace=False)
          )
          (self_attn_layer_norm): SequenceNorm(
            (norm): ScaleNorm(dim=-1, eps=1e-05, affine=True)
          )
          (fc1): Linear(in_features=128, out_features=128, bias=True)
          (final_layer_norm): SequenceNorm(
            (norm): ScaleNorm(dim=-1, eps=1e-05, affine=True)
          )
        )
      )
      (emb_layer_norm): SequenceNorm(
        (norm): ScaleNorm(dim=-1, eps=1e-05, affine=True)
      )
    )
  )
  (dropout_module): FairseqDropout(p=0.2)
  (classifier): ModuleList(
    (0): Sequential(
      (0): Linear(in_features=256, out_features=256, bias=True)
      (1): FairseqDropout(p=0.2)
    )
  )
  (sentence_projection_layer): Linear(in_features=256, out_features=2, bias=False)
)
2026-06-01 00:30:54 | INFO | fairseq_cli.train | task: lra-text (LRATextTask)
2026-06-01 00:30:54 | INFO | fairseq_cli.train | model: biram_lra_aan (LRAModel)
2026-06-01 00:30:54 | INFO | fairseq_cli.train | criterion: lra_cross_entropy (LRACrossEntropyCriterion)
2026-06-01 00:30:54 | INFO | fairseq_cli.train | num. model params: 492557 (num. trained: 492557)
…
