…
onal_embeddings=False, sent_loss=True, classifier_activation_fn='gelu', normalize_embedding=False, adaptive_input=False, classifier_in_dim=128)
2026-06-01 20:06:22 | INFO | fairseq.tasks.long_range_arena | Loading dataset from cache: /workspace/lra_saved/pathfinder_valid_cache_ec3e2450.pt
2026-06-01 20:06:23 | INFO | fairseq_cli.train | LRAModel(
  (encoder): LRAEncoder(
    (encoder): BiRAMLRAEncoder(
      (dropout_module): FairseqDropout(p=0.3)
      (embed_tokens): RealNumberEmbedding()
      (embed_positions): SinusoidalPositionalEmbedding()
      (biraml): BiRAM_Layer(
        (biram_w_l): Linear(in_features=128, out_features=128, bias=True)
        (biram_w_d): Dropout(p=0.3, inplace=False)
        (fuse_w_l): Linear(in_features=128, out_features=128, bias=True)
        (fuse_w_d): Dropout(p=0.3, inplace=False)
        (biram_norm): LayerNorm((128,), eps=1e-05, elementwise_affine=True)
        (main_conv): Sequential(
          (0): Conv1d(128, 128, kernel_size=(5,), stride=(1,), padding=same)
          (1): Dropout(p=0.3, inplace=False)
          (2): SiLU()
        )
        (main_conv_norm): LayerNorm((128,), eps=1e-05, elementwise_affine=True)
        (over_conv): Sequential(
          (0): Conv1d(128, 128, kernel_size=(3,), stride=(1,), padding=same)
          (1): Dropout(p=0.3, inplace=False)
          (2): SiLU()
        )
        (over_conv_norm): LayerNorm((128,), eps=1e-05, elementwise_affine=True)
        (linear_fusion): Linear(in_features=384, out_features=128, bias=True)
        (linear_fusion_d): Dropout(p=0.3, inplace=False)
        (norm): LayerNorm((128,), eps=1e-05, elementwise_affine=True)
      )
      (layers): ModuleList(
        (0-5): 6 x BiRAMSentenceEncoderLayer(
          (dropout_module): FairseqDropout(p=0.3)
          (activation_dropout_module): FairseqDropout(p=0.3)
          (self_attn): CAMA_v2(
            (output_linear): Linear(in_features=128, out_features=128, bias=True)
            (att_dropout): Dropout(p=0.3, inplace=False)
          )
          (self_attn_layer_norm): SequenceNorm(
            (norm): BatchNorm1d(128, eps=1e-05, momentum=0.1, affine=True, track_running_stats=True)
          )
          (fc1): Linear(in_features=128, out_features=128, bias=True)
          (final_layer_norm): SequenceNorm(
            (norm): BatchNorm1d(128, eps=1e-05, momentum=0.1, affine=True, track_running_stats=True)
          )
        )
      )
      (emb_layer_norm): SequenceNorm(
        (norm): BatchNorm1d(128, eps=1e-05, momentum=0.1, affine=True, track_running_stats=True)
      )
    )
  )
  (dropout_module): FairseqDropout(p=0.3)
  (classifier): ModuleList(
    (0): Sequential(
      (0): Linear(in_features=128, out_features=256, bias=True)
      (1): FairseqDropout(p=0.3)
    )
  )
  (sentence_projection_layer): Linear(in_features=256, out_features=2, bias=False)
)
2026-06-01 20:06:23 | INFO | fairseq_cli.train | task: lra-image (LRAImageTask)
2026-06-01 20:06:23 | INFO | fairseq_cli.train | model: biram_lra_pf32 (LRAModel)
2026-06-01 20:06:23 | INFO | fairseq_cli.train | criterion: lra_cross_entropy (LRACrossEntropyCriterion)
2026-06-01 20:06:23 | INFO | fairseq_cli.train | num. model params: 449920 (num. trained: 449920)
…
